model.pth (torch, 67602 bytes, 56 tensors)

convolution_block1.0.weight f4 [8, 3, 3, 3]
00000000: 13a0 74be ce0c c13d afe4 083e 068d 97bd
00000010: 32f8 753d 3df1 d9bb aa40 bbbd 1f08 ce3d
00000020: 883e 16bd 2e37 36bd 03df 00be 13b6 153e
00000030: 09a5 5fbe fa2a cb3d d4b8 983d b17f a7bd
00000040: 64d3 e7bd c8a9 13be 5c92 f7bd 0dac 963c
00000050: ec2d b5bd 0364 66be 74c6 e1bd cd0f bc3d
00000060: 9812 10bd 3d38 a2bc a442 1e3e 5809 d03d
00000070: 8009 60be 78e5 2a3e 8bf3 b9bd 8213 46bd
00000080: 68a1 e6bd 061e 2fbe bf49 bdbd 9081 6b3d
00000090: 531c 893b b5d6 04be bb3e 4bbd c1ef 733d
000000a0: c94a b2bd 2025 1d3e c5a2 06be 36eb b9bd
000000b0: 3bb0 2c3c dd08 b1bc 7028 2cbd a26d cf3d
000000c0: 1fe3 8f3d 89cd 23be b4a3 8b3d 99c2 00be
000000d0: 3f22 ba3c ffea a43d 0745 f73d a813 4bbd
000000e0: bae4 54bd bd1a ba3d 2c25 6cbe bcde b0bd
000000f0: 91e2 89be c21f 5cbe 7b59 8bbe db69 863d
00000100: 82fd eb3d 4e7d a7bd 067a 2cbe 9f00 2abd
00000110: 993e cb3d 7a58 043c 3d64 17be 5ee9 6fbe
00000120: 15a4 ff3d 7ef0 f4bc 0386 0bbe eb97 63bd
00000130: de1f 42be 4598 83bc b97a 36be 8f58 a13d
00000140: 1074 573d e060 3c3e 6669 25be cb0a e5bd
00000150: 45a1 343d 281b 4d3d 1c14 eebd 6a1b 1a3e
00000160: c988 213e 2ae4 193e bf4b 09be 1467 e7bd
00000170: 82d5 673e a4c1 903d f60f 5a3e f601 b73d
00000180: 2dbf 6b3e 78d0 cc3d d31d 0e3e 4fdc c0bb
00000190: 6426 053e ba95 0d3e c4a4 c23b 141e 04bd
000001a0: 54b2 f9bb 97cf 613d 243b f33d 0297 33be
000001b0: 1b30 e6bd 0d7e 913d 55bd 2bbe 6517 f03d
000001c0: 8aa3 b3bd 0829 243e 70a8 36be 5b22 bfbc
000001d0: eda4 12be 331e 05be d16e 52be 9102 243e
000001e0: 72ee d63d 9c99 08be a42d a53d 8f09 6e3d
000001f0: 1705 fd3d 46f4 1abd 2bd9 f2bd a2de f03c
00000200: 4f48 25be 7d36 11be eec2 a1bd 0ef0 32bc
00000210: 51c8 cd3b 9891 cbbd 8f84 6cbd e639 a93d
00000220: 18b4 2d3e 1985 0ebe 43b7 0f3e 29b8 ff3b
00000230: fd0f 0f3e 3703 88be 6cca 26be c218 fe3d
00000240: 1bb5 153e 0681 12be dfbc 11bd 1da0 52be
00000250: a872 963d 7c7b 20bd e01d 6ebe bcc3 d9bd
00000260: 4dd3 6b3d 61b6 a1bd 7a10 c83d 8b3d e73d
00000270: 54fe cd3d ea70 fabd 6430 cabc 2a8b 69be
00000280: d65c 7fbe 9598 3a3e 0764 d3bd 5c54 35bd
00000290: c9f4 173e 1dc1 893d b52b 99bb a9c4 803e
000002a0: b5d6 143e 653a 2a3c bf6a 063e 557e 79bb
000002b0: c287 18be e7fb 163e 1bf1 973d e5a3 ae3d
000002c0: a2bb 043e 2761 41be d462 1abe 9cd0 0d3e
000002d0: 3e9c b1bd 2d63 cb3c 2439 023e 51e1 b3bc
000002e0: 4783 8d3d b479 17b9 a5b9 453e 50c8 ae3d
000002f0: 1cd3 473d 49b4 cdbd 196c 40be 1ab8 eabd
00000300: 9fb1 1ebe a60c 223d d94c b03c 5e3f 1e3e
00000310: ca7f bf39 4fde 0ebd 0c54 41be ed63 b73d
00000320: 65a8 7dbe c817 1ebc 5288 cfba a876 47be
00000330: 8608 533e 1904 443e fecc 32bd 7bf6 273d
00000340: 80ff 7bbd f259 43be 667c f93d 3797 ddbd
00000350: 3ad4 f6bd 95fb 9d3d 7f8f 773e 789e 12be
-0.23889188 0.094262704 0.13368486 -0.07399945 0.06005115 -0.0066510723 -0.09143193 0.10060143
-0.03668073 -0.044486217 -0.12585072 0.14620237 -0.218403 0.099203065 0.07457128 -0.08178652
-0.113196164 -0.14420235 -0.12088463 0.018392587 -0.088466495 -0.22499089 -0.1102418 0.09182701
-0.035173982 -0.019802207 0.15455109 0.10158032 -0.21878624 0.16689098 -0.09079655 -0.048358448
-0.112612545 -0.17101297 -0.092425816 0.057496607 0.0041842847 -0.12972529 -0.04962037 0.05955482
-0.087056704 0.15346193 -0.13148029 -0.09078066 0.0105400635 -0.021610672 -0.04203075 0.10128333
0.07025742 -0.15996374 0.06818333 -0.12574233 0.022721408 0.080526344 0.12073713 -0.049579293
-0.051975943 0.09087131 -0.23061055 -0.08636233 -0.2693067 -0.2149649 -0.27216706 0.06563159
0.11522962 -0.08178197 -0.16843423 -0.0415045 0.09924049 0.008077735 -0.14784332 -0.23428866
0.12482468 -0.029899832 -0.1362534 -0.055564802 -0.18957469 -0.016063819 -0.17820252 0.07878219
0.05260092 0.1839633 -0.16153488 -0.11183699 0.04409911 0.050074726 -0.11624929 0.1504952
0.15774836 0.15028444 -0.13407801 -0.112989575 0.2264004 0.07068184 0.21295151 0.08935921
0.23022147 0.100007 0.13878565 -0.005885638 0.13002926 0.13826647 0.0059400517 -0.032255247
-0.0076201353 0.055129614 0.118765146 -0.17538074 -0.11239644 0.071041204 -0.16771443 0.11723212
-0.08771427 0.16031277 -0.17837691 -0.023331812 -0.14320727 -0.12999801 -0.20550086 0.16016604
0.104946986 -0.13339847 0.08065346 0.058114585 0.123544864 -0.037830614 -0.11857828 0.029403035
-0.16140865 -0.14180942 -0.07898508 -0.010921491 0.006279983 -0.09939879 -0.057743605 0.082629964
0.16963232 -0.1391796 0.14034753 0.007803936 0.13970943 -0.26564953 -0.16288155 0.12407066
0.14619868 -0.14307031 -0.035580512 -0.20568891 0.07346088 -0.039180264 -0.23253584 -0.106330365
0.05757456 -0.07896114 0.09768768 0.11291035 0.10058275 -0.12228568 -0.024681278 -0.22806993
-0.24937758 0.18222268 -0.10321813 -0.044269904 0.14839472 0.067262866 -0.0046743997 0.2515004
0.14535029 0.010389899 0.13126658 -0.0038069685 -0.14895537 0.1474453 0.07419034 0.08527354
0.12962201 -0.18884717 -0.15076762 0.1384911 -0.08672379 0.024827564 0.1271711 -0.021958025
0.06909805 -0.0001444582 0.19309099 0.085343 0.048785314 -0.10044152 -0.18791236 -0.11460896
-0.15497445 0.039562844 0.021521019 0.1545386 0.0003652557 -0.03487998 -0.18879718 0.08954606
-0.24771269 -0.009649225 -0.0015833473 -0.19478858 0.2060872 0.19142188 -0.043652527 0.041006546
-0.06152296 -0.1907728 0.1218193 -0.108198576 -0.12052198 0.07714001 0.24175833 -0.14318264

convolution_block1.0.bias f4 [8]
00000000: 37e7 60bd 9e59 8f3d d0d6 e33d e8c5 0e3d
00000010: cc86 193e 8651 c0bc fe60 aabd f9fa 223e
-0.054908004 0.06999515 0.111249566 0.034856707 0.14992827 -0.023476373 -0.08319281 0.15916051

convolution_block1.2.weight f4 [8]
00000000: bbc8 833f 8116 813f 44f3 7f3f 1449 833f
00000010: 2810 7a3f ce05 7a3f 1222 863f a7f5 703f
1.0295633 1.0084993 0.9998057 1.0256677 0.976809 0.9766511 1.0479147 0.94124836

convolution_block1.2.bias f4 [8]
00000000: b710 0e3c ca89 39ba cc0a dcbc 457b 14bd
00000010: afe5 843c 683c eb3c 07ec f7bc 62a5 01bd
0.008670977 -0.0007077722 -0.026860617 -0.03625037 0.016222803 0.028715327 -0.030263914 -0.031651862

convolution_block1.2.running_mean f4 [8]
00000000: 7b49 0f3e 8a60 373e 8314 c33e 3084 6a3f
00000010: 276e 563e 803b d83d e835 2d3f 0efd 513e
0.13992874 0.1790792 0.38101587 0.9160795 0.20940457 0.10558224 0.6766038 0.20506689

convolution_block1.2.running_var f4 [8]
00000000: 5c0f ff3d 47ca 043e e1af 243f f438 273f
00000010: fab4 4f3e 34c7 9a3d d9cf c83e 1405 203e
0.124541014 0.12967788 0.6433087 0.6532128 0.20283881 0.07557526 0.39221075 0.15626937

convolution_block2.0.weight f4 [20, 8, 3, 3]
00000000: ce68 723d 6b52 a6bd e20a afbd ea3d e23d
00000010: dbaf 733d 10b0 a7bb e45b 723d d073 adbd
00000020: 1c03 e03c 3819 a4bd 45cb c53d 9491 6ebc
00000030: 4a6d 68bd 8d91 8bbd 5978 d03c 1c8c aa3d
00000040: d79a 7ebd d9f0 ddbd 72c6 51bd 9eaa 83bd
00000050: a972 d8bd ad49 0d3d 4abb 4dbc 832f 20bd
00000060: 1f9b 863c e378 87bc e3cd 02be d110 8c3d
00000070: 4cd2 ccbd 5f12 133e bcdb 88bd afcb 013e
00000080: 9ffd e53d eb5e 253d db0a 463d d0be 233e
00000090: 590c 06bd cd4c 953c ca95 c3bd bd2a a13c
000000a0: 96ff 59bd c4e5 063c 0024 163c ccc9 a1bc
000000b0: 800c 3e3c b78f 86bd 4d6e e33d baea a73d
000000c0: 28f3 f6bd ad52 a5bb b7ed d53d fdf5 04bd
000000d0: 362c f23d f53a 283d 557c dfbc f028 dd3d
000000e0: b0d6 9bbd 5530 a13d 5fe1 de3d 5b28 f4bc
000000f0: 29ab a8bd 81b1 2f3e 3e0b 2b3e 18be 933d
00000100: 26c5 c5bc 01a1 b9bc ffc2 943d 1bd8 b7bd
00000110: dea5 8a3c 9ff5 bd3d 8a1a 283d bebc dd3c
00000120: 139f f2bc 3899 06bd 5d6d 25bd 8cbb 803c
00000130: 8dbc 43bd b4d2 f5bd 77ac a73d 67aa df3d
00000140: 29b6 cc3d 8ba7 38bc 450e bcbd b1e2 b3bd
00000150: 8881 c43c f736 b43d 9a82 703d 4252 073d
00000160: 43cf 5f3d 28b8 093c 93b2 43bd 6bc7 08bd
00000170: 93d9 0d3d 3bcd ee3d e33f 87bd 42dc 14bc
00000180: 8a18 863d 58c3 88bd 6e44 cfbc 18a1 a5bd
00000190: 44f1 abbd b672 93bd 39e4 e8bd e208 e03d
000001a0: 7af2 d13d 6a7a 94bd a838 16bd e10c 9cbd
000001b0: 6e9e ffbd 9e8e c9bd c192 983c 23a4 693d
000001c0: d771 6abd 985e 25bc 1cb9 3b3d ac68 c33d
000001d0: f561 f3bd c2c1 823d c555 a13d 5360 413b
000001e0: 9c92 c43d e038 8f3d e43d a1bd c54b a8bb
000001f0: e6b3 cebb 767e da3d fc3c d8bd 49a6 783d
00000200: 0807 99bd 4cde 203d 8550 73bc 8560 533d
00000210: 3a9f 413c cd21 b63d 5e9c 653d f162 173d
00000220: d37f 473d f614 92bd 5bcb 01be 4536 8e3d
00000230: 418f 5bbd 457d b33d 9678 843d 764c 453d
00000240: a5f8 c6bd e9c1 b1bc d2ce d63c e280 7cbd
00000250: 506c c83b a418 66bc 7354 f7bd aa1d 163e
00000260: a182 03bd 9eb4 f6bc 6bc0 f83b f32f 753c
00000270: e5eb 0bbe cc44 953d 62a9 85bd 46cb cebd
00000280: f31e d73d e0bb 973d 4723 f1bd fe2b f7bb
00000290: 1551 dcbd 9216 803d 5271 8e3c aed3 613c
000002a0: 8438 e23d 460f 233e 0ba6 d23d f78c 343d
000002b0: badc 52bd ace2 a3bc a537 143d c93f 15bd
000002c0: d548 963d 3ce5 77bd 006d db3c c467 893d
000002d0: 9134 9fbc 0eac 0ebb b1c9 43be cb5e 8fbc
000002e0: 8c6f 35bd 1c0f a43d 9c5d 883d 618f c53d
000002f0: c255 bbbd 03f5 8a3d 4b8d 9a3d a8b2 a83c
00000300: cd9a 793c 65a4 abbb fac0 f43d 4978 2fbd
00000310: 025c 103e f766 283e 028b a73d 5f50 983d
00000320: 06f5 c4bc 2b79 64bd 8759 67bd 74b3 23bd
00000330: 8fc5 d43c ed43 82bd 18a1 553d 7af0 07bd
00000340: b086 fbbb b62f e7bd 3a47 b03d 3961 523c
00000350: be82 03be be09 b23d cb62 c0bd 6fd9 a4bd
00000360: 7100 243e 0b69 eb3c c079 c7bd 0abe a33d
00000370: a1a2 b23d d81c bbbd df57 dfbc 558c 143d
00000380: 4967 483d c1d6 e73d ebf9 953d 58a3 1ebd
00000390: d73f 04bd f15b 3b3d 8173 14bd e660 8f3c
000003a0: b5fc c7bd ca21 a8bd 73cc 86bd b995 f93d
000003b0: 37dc 6bbb 16a8 9cbd fdc0 76bc abaf 0a3d
000003c0: 6d68 4d3c f52d f73c 0c13 e23b 232b 60bd
000003d0: ff97 8a3d b4ee 343c 2e47 00be f2b6 16bd
000003e0: 1c8d 953d b70e 6a3d 86a9 a63d 39dd 843d
000003f0: d2b0 d83d dca5 c43d 6e27 8bba 055c da3d
0.05918198 -0.08121189 -0.085469976 0.110469654 0.05949388 -0.005117424 0.059169665 -0.08469355
0.027345233 -0.080126226 0.09657911 -0.014561076 -0.05674485 -0.06814871 0.025448011 0.08327505
-0.062159386 -0.10836954 -0.051214643 -0.06429027 -0.10568745 0.03449409 -0.01255686 -0.03910781
0.01643139 -0.016537135 -0.12773852 0.06839145 -0.100010484 0.14362477 -0.06682536 0.12675355
0.11230015 0.040373724 0.048350196 0.15990758 -0.03272662 0.018225098 -0.09550054 0.0196737
-0.05322226 0.008233491 0.0091638565 -0.019749545 0.01159966 -0.0657038 0.111050226 0.081990674
-0.12058097 -0.005045256 0.10445731 -0.032461155 0.11824839 0.04107185 -0.027280966 0.10798824
-0.07609308 0.07870547 0.1088283 -0.0298044 -0.08235771 0.17157556 0.16703507 0.07213992
-0.02414186 -0.02265978 0.07263755 -0.08976766 0.016924795 0.09275364 0.041040935 0.027067538
-0.029616868 -0.032860965 -0.0403875 0.01571443 -0.047787238 -0.12003079 0.08187192 0.109211735
0.09995682 -0.011270414 -0.09182409 -0.08783472 0.023987547 0.08799546 0.0587183 0.03303743
0.05464102 0.008405723 -0.047777724 -0.033393305 0.034631323 0.11660238 -0.06603982 -0.009085717
0.06547649 -0.06677884 -0.025301185 -0.08087367 -0.08395627 -0.07199614 -0.11371655 0.10939194
0.10251327 -0.07249911 -0.036675125 -0.07619644 -0.1248139 -0.09841655 0.018624665 0.0570413
-0.057237472 -0.010093354 0.04583083 0.09541449 -0.11883918 0.063846126 0.07877687 0.0029506877
0.09598276 0.0699327 -0.07873133 -0.0051359856 -0.0063080667 0.10668652 -0.10558507 0.060705457
-0.07472044 0.0392745 -0.01485074 0.05160572 0.011817748 0.08893166 0.056057326 0.036959592
0.048705887 -0.07132904 -0.1267523 0.06943945 -0.053603414 0.08764128 0.064683124 0.048168622
-0.09715394 -0.021698909 0.026221666 -0.06164635 0.0061164275 -0.014043961 -0.12076654 0.14659753
-0.032107 -0.030115422 0.0075912974 0.014965045 -0.13664205 0.072885126 -0.06526448 -0.10097365
0.1050395 0.07408881 -0.11774307 -0.007543086 -0.10757653 0.06254305 0.01738802 0.0137833785
0.11045936 0.15923795 0.102855764 0.044079747 -0.051480033 -0.020005547 0.03618588 -0.036437783
0.0733811 -0.06052135 0.026785374 0.06709245 -0.019434245 -0.0021770033 -0.19119908 -0.017501255
-0.044295833 0.080106944 0.066584796 0.09646488 -0.091472164 0.067850135 0.07546481 0.020593002
0.015234661 -0.005238103 0.1195087 -0.042839322 0.14097598 0.16445528 0.081808105 0.074372046
-0.024042618 -0.055779617 -0.056481864 -0.03996606 0.02597311 -0.06360612 0.052155584 -0.03318832
-0.007675968 -0.11288397 0.086073354 0.0128405625 -0.12842843 0.086932644 -0.09393843 -0.08049285
0.16015793 0.028736612 -0.09740019 0.079952314 0.08722425 -0.09136361 -0.02726358 0.036266644
0.048926625 0.11320258 0.07323059 -0.038729995 -0.032287445 0.04574198 -0.036242966 0.01750226
-0.09764997 -0.0820957 -0.06581964 0.121867605 -0.0035989413 -0.07649247 -0.01506066 0.033858936
0.012537104 0.030173281 0.006899243 -0.05472864 0.06767272 0.011043239 -0.12527153 -0.036795564
0.07302305 0.05714294 0.08137803 0.064875074 0.10580601 0.09601948 -0.0010616609 0.106620826

convolution_block2.0.bias f4 [20]
00000000: 4eee e9bd 59b7 89bd aefa d4b8 c5a4 11be
00000010: 3eea 993d 521c a73c c051 aabd 40d5 c3bd
00000020: 2bf9 143e db6e 00be 5f54 0abc 6d62 07bc
00000030: 6c1c 2fbd 6db1 073e 8b7e c4bd dc93 e13a
00000040: ab0a e6bb 00b8 2a3d 65c5 dfbd a3a7 9f3d
-0.11422406 -0.06724424 -0.000101556405 -0.14223011 0.07515381 0.020399246 -0.08316374 -0.095621586
0.14548175 -0.12542288 -0.008442967 -0.008263213 -0.042751715 0.13251276 -0.09594449 0.0017210203
-0.0070203147 0.041679382 -0.10926322 0.07795646

convolution_block2.2.weight f4 [20]
00000000: f4e9 7b3f 49f8 7e3f e135 833f 1756 7b3f
00000010: 1630 833f 1503 833f 43f8 823f 5314 763f
00000020: 20f6 7b3f 813b 813f d60f 823f 6923 803f
00000030: b38f 793f 368c 7e3f cb00 763f 3da0 863f
00000040: 6800 793f c613 803f dc67 813f ee4f 813f
0.9840386 0.99597603 1.0250818 0.9817824 1.024905 1.0235316 1.0232013 0.9612476
0.9842243 1.0096284 1.0161083 1.0010806 0.9748489 0.99432695 0.9609496 1.0517651
0.97266245 1.0006034 1.010982 1.0102518

convolution_block2.2.bias f4 [20]
00000000: 7889 17bd 8375 e4bb 5ddd a5bc a772 6b3b
00000010: 4ea1 84bb eed9 ab3b 574f a13c f6d5 d6bc
00000020: 495d 163c 50f6 03bc 5c5b a9bc 40f9 6cbc
00000030: 287e a03c 6598 373b 68ca 953b a653 523a
00000040: d5f6 ca3c 636e 62ba c536 6b3b 7e31 7c3a
-0.036996335 -0.0069720163 -0.020247156 0.0035926492 -0.0040475493 0.005244485 0.019691152 -0.026225071
0.009177514 -0.008054331 -0.020673446 -0.014463723 0.019591406 0.0028014418 0.004571248 0.0008023329
0.024775902 -0.0008637665 0.00358908 0.0009620412

convolution_block2.2.running_mean f4 [20]
00000000: 95a1 ea3e 8438 363e bb3c 103e 5b91 453e
00000010: 9051 c53e 901c ca3e 3753 1f3f ea45 723e
00000020: 4f06 d63e 22a4 243f b208 673e 49ac c63e
00000030: 1103 a43e 97de 8e3e 57b4 8c3e 63cc 623e
00000040: 3538 c63e b9a9 fd3e d7b2 823e a5fa 123f
0.45826402 0.17794997 0.14085667 0.1929373 0.3853879 0.39474916 0.6223635 0.23659483
0.41801688 0.64312947 0.22561911 0.38803318 0.3203359 0.27904198 0.27481338 0.2214828
0.38714758 0.4954355 0.2552707 0.57413703

convolution_block2.2.running_var f4 [20]
00000000: 8880 c33e 6872 473e 9e1e 5e3e 154c 8d3e
00000010: 010a 103f a94e 2f3e b515 183f a857 0c3e
00000020: 6f32 653e b7d0 1840 d255 d03d cec9 963e
00000030: c73e e83d 4909 223e d3fa 0b3e 2c7f cb3e
00000040: f905 973d e010 713f 56a3 d33e ad87 b13f
0.38184 0.19477236 0.21691367 0.27597108 0.56265265 0.1711985 0.5940812 0.13705313
0.2238252 2.387739 0.10172619 0.2945084 0.11340099 0.15823855 0.136699 0.39745462
0.07374186 0.94166374 0.41335553 1.386953

convolution_block3.0.weight f4 [10, 20, 1, 1]
00000000: dd18 57bc fca9 323d de29 41be d51a bd3d
00000010: 9fd7 6abe 876f f4bd 33bb f43d df4a 8f3c
00000020: e665 34be 6700 b9bd 6fd8 66be aeac 4f3e
00000030: 5f59 a7bd 6a27 eabd 0ee5 2abe 0a3e 5abd
00000040: f9d8 673d 9ca4 4ebe 77a5 24be 8ddb 26be
00000050: 45bb 06be 9893 c03d 0ac0 32be 9fb1 b03d
00000060: 44df 8dbd 6859 e33c 2cf2 583d 269a 48be
00000070: 3b33 463e bf6e 13bc 4fa5 3abe 3ba8 893b
00000080: 5968 0a3e 04df 4a3e 57e9 633d 1619 a9bc
00000090: 1156 593e b31e 56be 496d ba3c ec2f db3d
000000a0: e64e 15be 6749 f53d 6c7c 2e3e 9de9 1dbe
000000b0: 71bf 803e f414 553e 294a 0dbe 6c0b 553d
000000c0: 4422 823b 6b66 6ebe 247b e93d 1917 36be
000000d0: 9144 61bd 6c8a 3f3d 4da5 30be 4595 973e
000000e0: 32a4 9f3d 4012 fdbc a61a 27be 507b 963e
000000f0: aa9b 8f3e da90 043d 1437 14be 815c f1bd
00000100: 1615 1ebe f63f 5e3e 5daf ec3d 3f11 753e
00000110: ca29 1c3e 995e 123e feb9 ea3d faec 9e3d
00000120: 2f67 f9bc 7aa8 2c3e 2cf1 ed3d d036 1e3d
00000130: 5043 bfbd 3be8 aebd 0186 8e3d 54b6 123e
00000140: abd4 33be 7e1d 4fbd 457f 893e eabd 06be
00000150: 65a9 70bd dd1a febd 2374 27be 7950 dcbc
00000160: 400d 413e 87ba eabd fa2f af3d a3f8 44bd
00000170: e405 5d3e f370 983d f12e 603d c0b6 6c3e
00000180: 3e88 b1bd 8ea3 abbd 254e a5bc ddb1 433e
00000190: fc0c 05be 07ba 25be 534e 16be f15c 51bb
000001a0: da56 45be eec6 603e acbb 623e 4e51 1c3c
000001b0: edb2 4bbe 6097 813d 5646 873e 45f3 a4bd
000001c0: 3f10 33bd b283 983d b206 31bd 310e 0dbe
000001d0: af66 8c3d 88d6 68be 1fa3 30bd 04e3 c8bd
000001e0: ee7a 36be d11e 02be d0df 36be 3263 81bd
000001f0: 749f c63d 05bb 4b3e 50dd 513e 61bc 7abd
00000200: 4dc7 063c 5163 f1bd d516 59be 5c0b 11be
00000210: 2b84 733e c231 15be 0f83 69bc 3512 a43e
00000220: c417 313e f5bf 113e 3a8f 723e 46cd 033e
00000230: 3694 033e 980c 213c e0f1 6a3e 4380 133e
00000240: 3b25 663e f771 15bd 9d84 5dbe e3b0 c53d
00000250: a891 1ebe 859f 433d cd96 84bc bceb 1e3e
00000260: f7ea 523e 49b9 cebd f687 35be 728a 4b3e
00000270: 7add b5bd f80f 34be 79a7 813e 948a 4a3e
00000280: b77f d7bd 80b1 84bd 1324 6c3d 52e1 143e
00000290: f5bd b8bd 5a4a 1a3e 8af4 9a3e 5d5d 8bbc
000002a0: acc8 10be 1042 633d e3eb 8a3d c1a9 6a3e
000002b0: e037 633d 4124 31be df44 61be 95b0 f13d
000002c0: 70be 8b3d 67a0 febd a6bf 44be a8ed 10be
000002d0: a590 a4bd 5ac2 373e b541 a23d 8510 4b3e
000002e0: 0a0c 1cbd ce79 0dbe 429b 0fbe 2c18 04be
000002f0: c02c f1bd b3d9 9d3c c29e 303e 4eb8 e43d
00000300: 386b 2cbc 381e 3d3e cf57 293e 77aa b1bc
00000310: 8f99 6ebd 7cf8 c23d 5107 6b3e 0cb1 583e
-0.013128486 0.04361914 -0.18863627 0.092336334 -0.22933815 -0.11935335 0.11949768 0.017491756
-0.17616996 -0.0903328 -0.225435 0.20280716 -0.08171343 -0.11433299 -0.1668894 -0.05328182
0.056603406 -0.20179981 -0.16078745 -0.1629469 -0.13157375 0.09403151 -0.1745607 0.086276285
-0.0692735 0.027752593 0.052965328 -0.19590053 0.1935548 -0.008998572 -0.18227123 0.004200963
0.13516368 0.19811636 0.055642452 -0.020641845 0.21224238 -0.20910148 0.02275719 0.107025
-0.14580879 0.11976891 0.1703965 -0.15421148 0.25146058 0.20808774 -0.13797821 0.052012846
0.00397137 -0.23281257 0.1140044 -0.17782249 -0.05499703 0.04676287 -0.17250557 0.2960607
0.0779499 -0.030892491 -0.1631876 0.29390955 0.2804845 0.032364704 -0.14474136 -0.11785222
-0.15437731 0.21704087 0.115568854 0.2393236 0.15250316 0.14293899 0.114612564 0.077600434
-0.03044471 0.16861144 0.116182655 0.038626492 -0.09339011 -0.08540388 0.06959153 0.14327365
-0.17561595 -0.050565235 0.2685491 -0.13158384 -0.058755297 -0.124074675 -0.16352896 -0.026893841
0.1885271 -0.114613585 0.08554073 -0.04808868 0.21584278 0.07443418 0.054732267 0.23116589
-0.08668564 -0.08380805 -0.020178864 0.19110818 -0.12993234 -0.16184245 -0.14678316 -0.0031946267
-0.19271412 0.21950886 0.22141904 0.009540869 -0.19892474 0.063277006 0.2642085 -0.080542125
-0.043716665 0.07446994 -0.043219276 -0.13774945 0.06855523 -0.22738087 -0.043124314 -0.09808925
-0.17820331 -0.12707068 -0.17858815 -0.06317748 0.09698382 0.19895561 0.2049458 -0.06121481
0.008226228 -0.11786521 -0.21200116 -0.1416449 0.23780887 -0.14569762 -0.014252438 0.3204514
0.17294222 0.14233382 0.23687449 0.12871274 0.12849507 0.009829663 0.2294383 0.14404397
0.2247514 -0.03648564 -0.21632619 0.09652879 -0.15485251 0.04775955 -0.016185189 0.15519613
0.20597444 -0.10093934 -0.17727646 0.19877031 -0.08880134 -0.17584217 0.25323084 0.19779426
-0.105224065 -0.06479168 0.05765159 0.14539078 -0.090206064 0.15067425 0.30264693 -0.017012293
-0.1413905 0.055482924 0.06783273 0.22916318 0.05547321 -0.17298986 -0.21998928 0.118012585
0.068234324 -0.12432938 -0.19213733 -0.14153159 -0.08035401 0.17945233 0.07922689 0.1983052
-0.03809742 -0.13815996 -0.1402407 -0.12899846 -0.117761135 0.019268846 0.17248061 0.11167966
-0.01052361 0.18468559 0.16537403 -0.02168773 -0.058251914 0.09520051 0.2295201 0.21161288

convolution_block3.0.bias f4 [10]
00000000: 00a2 933d f990 993d 6e92 873d f2ce 073d
00000010: 9375 2cbe 4976 213e b553 123d 8f33 3fbe
00000020: 661e 4e3e 538c 203e
0.072086334 0.074983545 0.06619726 0.033156343 -0.16841726 0.15767778 0.03572436 -0.18672012
0.20128784 0.1567853

convolution_block3.2.weight f4 [10]
00000000: 2f4b 723f 9b8a 743f 987e 873f c91a 843f
00000010: 35af 813f 0b65 793f ddf0 7d3f ccda 863f
00000020: db1f 6d3f 02a9 863f
0.9464597 0.95523995 1.0585508 1.0320674 1.0131594 0.97419804 0.99195653 1.0535522
0.9262673 1.0520327

convolution_block3.2.bias f4 [10]
00000000: b745 b33c ce68 99bc e9cd d63c 1ab9 3abc
00000010: 03b7 0f3c e740 b5bb 7de4 5b3c 18a5 26bc
00000020: ca05 15bb 34d7 693b
0.021883829 -0.018726733 0.026221232 -0.011396671 0.008771661 -0.0055314186 0.013421175 -0.010171197
-0.0022739046 0.003568125

convolution_block3.2.running_mean f4 [10]
00000000: 6b1f be3e 0c0e f83e 6d72 953e c8f2 ca3e
00000010: e5f0 c63e 533a 153f 4208 b23e 359e ab3e
00000020: e41e 243f d368 153f
0.37133345 0.48448217 0.29188862 0.39638352 0.38855663 0.5829212 0.34771925 0.3351914
0.64109635 0.58363074

convolution_block3.2.running_var f4 [10]
00000000: 99a7 293e 0e34 a63e bafa 173f fc58 eb3e
00000010: 5d4f c63e c8d4 dc3e 8159 943e e323 633f
00000020: fa5c 253f 39f0 943f
0.1656784 0.3246159 0.59366953 0.45966327 0.38732424 0.4313109 0.28974536 0.88726634
0.64594996 1.163581

convolution_block4.0.weight f4 [20, 10, 3, 3]
00000000: 4c65 613d eb14 babd 3572 783d d595 0ebd
00000010: 95b2 2a3d d273 d8bd fe77 7a3d 395d 81bd
00000020: 2384 bf3c d8e9 c83b 3f6e 08be 324f cb3c
00000030: 609c db3c 464d 27bc a14c 1a3e ed0e 4f3d
00000040: bc78 803d 446a 4d3d 7877 6dbd 6039 97bd
00000050: ad61 8d3d c453 cbbd dccb e1bd bc96 7e3d
00000060: 21a3 49bc 9be1 ca3d 04ae 623d a6e7 1fbd
00000070: 3faf 093c 5c09 c4bd fc82 c43b 84da b33c
00000080: 7d0b 84bc 5eea 573c cf26 403c f091 453c
00000090: 13c3 5a3d a94c e8bd a872 533b cc6b 47bd
000000a0: 0ac4 a93c 6e63 823d 8640 fdbd 9408 5a3c
000000b0: 8e00 06bc a7c0 ccbd cb95 a1bc 0a87 0d3d
000000c0: 1931 f0bd 4079 56bc d261 ebbd 51a4 053d
000000d0: da67 783c 62ff d8bd dcef 12bd e557 e13a
000000e0: 70b0 043e 812a d1bc a43b a2bd 5489 0c3e
000000f0: e1c6 fcbd 520a 0a3d 2210 1c3b 2212 b8bd
00000100: 81c1 373d 9f61 0d3d 3ab5 aebc 25c5 a4bd
00000110: 8460 b83d ec56 b9bc 7df7 823d 512d 40bd
00000120: c5cc a33c d768 84bd a90e b03d 67dd 3bbd
00000130: 0592 13bd 1d6f f5bd e61a a5bd 82f9 933d
00000140: e219 56bd 5805 393d ca6f 0dbd 04df bd3b
00000150: a8c5 80bd 0665 9c3d 1d40 e93d f428 94bd
00000160: 2577 f6bd 0ecc 0dbd ddf6 0dbc d0ad 413d
00000170: 0955 763d dab5 823d de17 0b3c cc12 60bd
00000180: 68a9 923d 8609 9c3d d3f3 c13d 1f6e 9dbd
00000190: 831b 8bbd aa8f dd3d 4fe8 8c3d 774a 823d
000001a0: 0f3c 8bbd ec41 4fbd 45a9 fc3c cfbc ad3d
000001b0: 978c 923d 4561 3dbd 9021 9fbd 2f89 773d
000001c0: 7003 64bc 08d9 cb3c ea28 9fbc 4837 f8bd
000001d0: f62a 86bd 79f3 fd3d c1dc 57bd fcef a8bd
000001e0: e2ca fc3c 183d fcbd d4bc f0bd 9ac3 033d
000001f0: 5295 84bd 2ae2 a33d 6c1d 95bd bafd 543d
00000200: bfe3 afbc c381 893d 33d8 0f3d bfb5 5ebd
00000210: aa53 84bd 901c 413d 6f57 57bd 0655 eb3c
00000220: a511 a63d 2c39 4fbd 00db 2b3d 666f aa3c
00000230: ebb3 a63c 6bcb 1c3e eb8f 1a3e ddf0 d5ba
00000240: 4629 673d ef65 37bc d705 893d 7a34 f33d
00000250: d5c4 493c 8097 4c3c 20dd e0bd e87a b83d
00000260: 0bfb c1bb b733 4f3d 8a25 d8bc 7607 d7bd
00000270: 87ea f7bd 403b 0dbc 66e1 e3bd 4ff0 9c3a
00000280: 10a0 afbd 1113 adbc 5447 843d e1de 603c
00000290: d4bf a5bc 3c62 cf3d 0dcc 39bd 9a42 bd3c
000002a0: dfa1 97bd 94d8 893d 3f7e 993d 061b 13be
000002b0: 73cc 83bc 9b03 1cbe 7019 d53c bce0 93bc
000002c0: 5fd0 163d 035e 46bd 99fa 7bbc 43fd 9ebc
000002d0: 8b0d e4bd 1da5 da3c 08e1 f7bb 023d 1abd
000002e0: 3214 b03d c3c2 c0bd 43e3 1d3d 9c4b 4b3d
000002f0: 3734 91bd 393a ab3d 3c9b b5bb a452 13bd
00000300: db5f 9a3d c82a bc3c 1c77 8cbc 2496 523d
00000310: 8ad2 7c3d f1a4 e63c 9bd2 b63d a57e 923d
00000320: 6c11 aabd b543 973c 2204 4dbd f5f7 5a3c
00000330: ce84 3e3d 5137 b13c c3fc 1dbc e7e2 a7bc
00000340: a0de 193e 20fe a43d 8b48 c7bc 5ed3 743d
00000350: e354 03be 2f07 0d3d 7638 42bd b885 49be
00000360: 75b2 083e f62a 233d 5349 d3bd 1e51 163b
00000370: eb4e cabc a78a 98bb 623d 4e3e 86b5 153e
00000380: e979 d7bd 266b 563d 6635 253c 9f84 8b3d
00000390: 7bb0 a4bd 8c25 d23d a535 cd3c 68b2 aebd
000003a0: a490 ecbd d51a 16be 0aad 9e3d e3e4 a33b
000003b0: 07f5 9c3d afa9 b2bc f2e4 483d 3399 913c
000003c0: 6fe8 9a3d 0d9a 953b 0843 1bbe 5388 cbbd
000003d0: 023e 6c3c 8e5f f03c 9203 f9bd 2aa1 01bd
000003e0: fc41 153c eb85 8f3d 3419 64bd 27b9 c3bd
000003f0: 7a00 2d3d 9dfa 2bbd 85fd f03d 5d09 da3d
0.055028245 -0.09086021 0.06065579 -0.03481086 0.041674215 -0.10568966 0.06114959 -0.06316609
0.023378437 0.006131392 -0.13323306 0.024818037 0.026807964 -0.0102112945 0.15068294 0.050551344
0.06273028 0.05015017 -0.057975262 -0.0738399 0.06903396 -0.099280864 -0.11025211 0.06215547
-0.012306959 0.09906312 0.055341735 -0.039039277 0.008403598 -0.09572098 0.00599706 0.021954782
-0.01611876 0.013178436 0.011728003 0.01205872 0.053408694 -0.11342747 0.0032264385 -0.048686787
0.020723362 0.06366621 -0.123658225 0.013307709 -0.008178843 -0.09997683 -0.019724747 0.03455261
-0.11728115 -0.013090432 -0.11493267 0.032627407 0.015161479 -0.105955854 -0.03587328 0.0017192332
0.1295793 -0.025532963 -0.07921532 0.13724262 -0.12342621 0.03370125 0.0023813327 -0.089878336
0.044862274 0.034516927 -0.02132665 -0.08045415 0.09002784 -0.022624455 0.06394861 -0.046918217
0.019995103 -0.06465309 0.08596546 -0.045865443 -0.036027927 -0.11984084 -0.08061771 0.07225324
-0.052270778 0.04517111 -0.03453044 0.005794408 -0.062877 0.07636456 0.11389182 -0.07234374
-0.12034444 -0.03461843 -0.008664814 0.0472849 0.06013969 0.06382342 0.008489577 -0.054705426
0.07161218 0.07619004 0.09470334 -0.076870196 -0.06792357 0.10818417 0.06880247 0.06361859
-0.06798565 -0.050599977 0.030842433 0.08483278 0.07155722 -0.04623534 -0.077700734 0.060433563
-0.013916835 0.024883762 -0.019428689 -0.12119919 -0.06551163 0.12399954 -0.05270076 -0.082488984
0.03085846 -0.1231634 -0.11754766 0.032168962 -0.06473793 0.08002122 -0.072810024 0.051999785
-0.021470902 0.06714203 0.035118293 -0.054372545 -0.0646127 0.04714638 -0.052573618 0.028727066
0.08108834 -0.050591633 0.0419569 0.020805072 0.020349463 0.15311973 0.15093963 -0.0016322393
0.056435846 -0.011193736 0.06690567 0.118752435 0.012314995 0.012487292 -0.10979676 0.090078175
-0.005919819 0.05058643 -0.026385088 -0.1049947 -0.121052794 -0.008620083 -0.11126976 0.0011973473
-0.085754514 -0.021127256 0.06458917 0.0137250135 -0.020233072 0.101261586 -0.045360614 0.023103047
-0.07403921 0.06730762 0.07494783 -0.14365777 -0.0160887 -0.1523575 0.026013106 -0.018051498
0.036819812 -0.0484295 -0.015379571 -0.019407874 -0.111353956 0.02669006 -0.0075646676 -0.037655838
0.08597602 -0.09412148 0.03854681 0.049632654 -0.07090037 0.083607145 -0.005542187 -0.035967484
0.07537814 0.022969618 -0.01714664 0.051412717 0.061724223 0.028154822 0.089268886 0.07153062
-0.08304104 0.018464902 -0.05005277 0.013364782 0.04651337 0.021632822 -0.009642783 -0.020493938
0.15026331 0.08056283 -0.024326583 0.059771888 -0.1282535 0.03443068 -0.047417127 -0.19679916
0.13349326 0.039835893 -0.1031672 0.0022936533 -0.024695834 -0.0046552005 0.20140603 0.14620027
-0.105212994 0.05234828 0.010083532 0.06812405 -0.080414735 0.10261068 0.025049994 -0.08530122
-0.115510255 -0.14658673 0.07747848 0.0050016507 0.07663923 -0.021809427 0.049046464 0.017773246
0.075638644 0.0045654834 -0.15162289 -0.09938111 0.014419081 0.029342439 -0.12158884 -0.03164784
0.00910997 0.07007965 -0.055688098 -0.095567994 0.042236783 -0.04198705 0.11767105 0.10646317

convolution_block4.0.bias f4 [20]
00000000: d18d b53d 63ae ae3c d480 4cbd 2b2a d8bd
00000010: 7eb0 adbd 0582 3ebd bb27 cbbb ae45 9fbc
00000020: d7af 1fbd 2381 933d fda8 8e3d b961 babd
00000030: dabb 43bc c181 c7bd c5cd 013d 2217 8c3d
00000040: 8622 713d d9d3 a43d 0a03 07bd e4b9 75bd
0.0886494 0.021323388 -0.049927548 -0.10554918 -0.08480929 -0.046510715 -0.0061998046 -0.019442406
-0.038986053 0.07202365 0.06965826 -0.0910067 -0.011946643 -0.097415455 0.031690378 0.0684035
0.058870815 0.08048219 -0.032961883 -0.059991732

convolution_block4.2.weight f4 [20]
00000000: 1f72 793f eb8f 763f 4316 833f 45e3 813f
00000010: 31c6 843f f453 753f a879 833f da32 7f3f
00000020: cf7d 823f 8fd8 7d3f 0415 823f 7e81 7d3f
00000030: 773c 7e3f 33f5 7f3f 8a6e 803f 11e5 833f
00000040: d68d 733f 727a 803f 006f 7e3f 5f8e 803f
0.9743976 0.9631335 1.0241169 1.0147482 1.0372983 0.9583123 1.0271502 0.9968697
1.0194644 0.9915857 1.0162663 0.99025714 0.9931101 0.9998352 1.0033734 1.030428
0.951383 1.0037367 0.9938812 1.0043448

convolution_block4.2.bias f4 [20]
00000000: 01f9 673c fea4 5c3b e161 a9bc e5df fa3c
00000010: 7cc2 823c 880c 253d e44c 05bb 7515 60bc
00000020: 557e fe3c f9ba f839 1e1f f43b f6cc dfba
00000030: 314f 773b 9dbf ff3b 7615 373c 783c 8dbb
00000040: c225 60bb 23e2 febc 90db 3c3c 8a6d a73c
0.014158488 0.003366768 -0.020676555 0.03062434 0.015961878 0.040295154 -0.002034002 -0.013676991
0.0310661 0.00047441552 0.0074499985 -0.0017074633 0.003773641 0.0078048245 0.01117455 -0.004310187
-0.0034202193 -0.03111369 0.011526957 0.020437974

convolution_block4.2.running_mean f4 [20]
00000000: 06aa ba3e 8777 223f 47b4 c53e 2647 cc3e
00000010: fa9d dd3e 6bdf 933e 901e 213f 60db 023f
00000020: c841 de3e bac9 9b3e f4ec 673e e120 fb3e
00000030: d279 2f3f ff5b a13e 6b5c 3c3f 533a 213f
00000040: 532d 0e3f 5287 153f 6c56 053f 0810 113f
0.36457843 0.63463634 0.38614103 0.39898032 0.4328459 0.28881392 0.6293726 0.5111599
0.43409562 0.30427343 0.22648984 0.49048522 0.6854526 0.315155 0.7357852 0.6297962
0.5553791 0.5840961 0.52084994 0.56665087

convolution_block4.2.running_var f4 [20]
00000000: b0c5 ab3e 8026 e23e f031 9f3e 7620 bd3e
00000010: 3069 8b3f a644 3b3e 0777 7b3f e0ec 3b3f
00000020: 7a75 033f 11a4 703e 0b3c ef3d 7a37 d33e
00000030: 5b92 323f f6b3 673e b465 bd3f 0228 883f
00000040: 0257 263f fbdc 7d3f af75 e33e 927c 093f
0.3354926 0.44169998 0.31092787 0.36938828 1.0891476 0.18287906 0.98228496 0.7340832
0.5135113 0.23500086 0.11681374 0.41253263 0.6975457 0.22627243 1.4796662 1.063721
0.64976513 0.99165314 0.44425723 0.53705704

convolution_block5.0.weight f4 [32, 20, 1, 1]
00000000: ab53 333e 1478 ad3d bed4 2f3c e1a7 5cbe
00000010: e3ef 313e 6509 503e 5e8a 09bd b91f 5cbd
00000020: fc1a 3e3e 0f1b 4f3d c254 683c c879 dabd
00000030: 4f3c 5dbe 9def eebd a6a6 5e3e af6d 8abd
00000040: 7c25 debd e323 593e ec2d 6b3e e81c 1ebe
00000050: b7cd 03be 7dac a73d 09f5 8cbd 22d9 00be
00000060: e30b 1cbd 56f7 bfbc 136e 19bb d60a 073e
00000070: 9726 2dbe 5536 42bc a5ce 203e 46e3 0ebb
00000080: f339 a43c 1ddc 75be bd05 223e 1ee6 803e
00000090: b6c8 d5bc e6a6 67be e160 09be b4c9 b4bd
000000a0: 0df4 cdbd 7f2d 3c3e dd03 163e 2a2d 3f3e
000000b0: 4591 ae3d cfa3 1cbe 14ce 22be d84e f23c
000000c0: db03 cebd d276 6e3e 1378 c4bc 2b27 c83c
000000d0: 6f2f 7bbd 0270 143e 86a0 63be 070b d9bb
000000e0: 1722 d53c 52df 56be 8082 45bc 2311 5e3e
000000f0: fe8d 08be 09ce b8bc b331 143e 9dc2 8c3d
00000100: 6b3d 45be b37b fa3c 94cd 903d 49a8 cbbc
00000110: 1a0c 6abe 619b 643e 37a5 0e3c fdd0 53be
00000120: 0aa3 12bd d3fc 853d cd24 4cbe f789 06be
00000130: 08dc 24be 5517 843d 2f2c 473e d7f0 753d
00000140: 756d 6dbd 880f 643e ec3e f4bc 268d bd3d
00000150: 26da d3bc be5b 383d 597f 753e dd1f 2e3e
00000160: 1190 13be 50ee 25be a121 eb3c 8e8b bd3d
00000170: 80fe f73d a40d 383c 21f1 f03d 4280 3cbb
00000180: 08e3 7dbd a4e9 323d 8203 44be 580a 74bd
00000190: 0ec3 2bbe a0cf bdbc 37b1 593d 331a 91bd
000001a0: a39b 5dbe ce63 ddbc 0184 76bd a8d0 88bd
000001b0: 8c6f 773d ef56 45bd f7b9 c93d f073 1a3e
000001c0: ec1d 983d d3c0 283e d42d 8fbc b8ff 933d
000001d0: 0a65 37be 9a7b 52be 1d62 3b3e 6afa 2b3e
000001e0: bdd1 13be f5c5 50be ff01 ac3d 44d4 3e3e
000001f0: e28e 0abe 19d1 38be e171 2b3e 1c0e 9fbd
00000200: 7294 4c3d c44a 3bbc 6126 513d b4ef a0bd
00000210: c217 133e 0a9b a53d 4971 0bbd 427c 11be
00000220: 43a3 1dbd 678e db3a af51 3fbd c8ee d73c
00000230: 3ecd 073e 998a 2ebe 2472 b53d 5c5a 4cbe
00000240: 33df 653e a74b b8bd d652 993c af70 e33d
00000250: b07c c73d c007 593d dca8 3c3e b7c8 b13d
00000260: 1ec0 5bbe beb4 f43d ecca 9ebd 5752 17be
00000270: 8659 3bbd 942f a2bd 3ed8 2dbd 515f 5abe
00000280: 1803 1bbc a6b9 4bbe ce21 79be 390b da3d
00000290: 21b0 b43d 968e 61bc e61f 113e 5761 11ba
000002a0: e1b9 fc3c 2b9f bebd b41c 6fbe f11d 313e
000002b0: ff33 a8bd b638 b7bc 575c 923d fd33 003e
000002c0: 1bbb 35be 505f 7f3d 86f8 f93c 2a7a 76be
000002d0: 7f2c f8bd bb24 c53c e794 eb3b 00c2 bcbd
000002e0: d2d1 233e ffd7 133b 08a8 24be 8816 4cbe
000002f0: fa63 7b3e 5e1a be3d 6185 053e fcfd c3bc
00000300: c41b 3c3e 1f69 033e 67ef 593e 1e30 61be
00000310: 927b 6cbb 4a21 c5bd 9569 60bd babb 1e3c
00000320: 3981 ab3d e690 ff3c 7774 b8bd 1893 ecbb
00000330: 901a 283d 2de9 243d 61df b03c 64d9 203b
00000340: e710 cf3b ce25 d73c 6dac f53d 607e 1d3e
00000350: 3bb2 35be d208 043e 24cc a1bd c5c8 593e
00000360: 3cbc 5b3e d595 2ebe a6b3 823c bc67 a73c
00000370: a8fc 9fbd 1da9 b6bd 8e17 c43d 4eeb 56be
00000380: 04f7 013e e937 263d ad83 14bd 1de7 043e
00000390: 9824 d53d 010b 513e 29fc f93d f356 1d3e
000003a0: 3a8c 30be bd51 51be b41f b7bd d4eb 1e3e
000003b0: d1f1 94bd 12eb 393e d2a1 4ebe bef7 b83d
000003c0: fbf1 0b3e 01ee 3dbe 7b47 82bd e795 5cbe
000003d0: 1845 3b3e 54f8 f43d 1f33 61be e6cf dc3d
000003e0: 6e19 dfbd b27f 413d 9728 463d 067b 043e
000003f0: a3fe d4bd 294a 2c3e 7f37 dc3d b870 d5bd
0.17512386 0.08470169 0.010731874 -0.21548416 0.17376666 0.20316084 -0.033579223 -0.05374119
0.18564981 0.050562914 0.014180364 -0.10667759 -0.21605037 -0.11666796 0.21743259 -0.06759202
-0.10846993 0.21205096 0.22966737 -0.15440714 -0.12871443 0.081871964 -0.06882674 -0.1258283
-0.038097274 -0.023433369 -0.0023411557 0.13187727 -0.16909252 -0.011853774 0.15703829 -0.0021802946
0.020047164 -0.24009748 0.15822501 0.25175565 -0.026096683 -0.2262226 -0.13415863 -0.08827534
-0.100563146 0.1837673 0.14649911 0.18669572 0.08523802 -0.15296863 -0.15898925 0.029578611
-0.10059329 0.23287514 -0.023983037 0.02443274 -0.061324533 0.14495853 -0.22229204 -0.006623629
0.026017232 -0.20983627 -0.012055039 0.21686225 -0.13335416 -0.022559183 0.14472084 0.06873057
-0.1926171 0.030576563 0.07070461 -0.024860518 -0.22856179 0.22324897 0.0087063825 -0.20685191
-0.035800017 0.06542363 -0.19935913 -0.13138567 -0.1609956 0.06449763 0.19450448 0.060044136
-0.057965714 0.2227155 -0.02981516 0.092554376 -0.025860857 0.045009367 0.2397436 0.17004342
-0.14410426 -0.1620419 0.028702559 0.092551336 0.12109089 0.011233721 0.11764742 -0.002876297
-0.061984092 0.04367985 -0.19141963 -0.059580177 -0.16773626 -0.023170292 0.05314752 -0.07085075
-0.21641402 -0.02702513 -0.060184482 -0.06680423 0.060409114 -0.04817861 0.09849923 0.15083289
0.07427582 0.16479807 -0.017477907 0.07226509 -0.17909637 -0.20554963 0.18299146 0.16794744
-0.14435478 -0.20388015 0.08398818 0.1863566 -0.13531068 -0.18048514 0.1674266 -0.07766363
0.049946256 -0.0114314 0.05106199 -0.0785822 0.14364532 0.08086212 -0.034043584 -0.14207557
-0.038485777 0.0016750813 -0.04670876 0.026358977 0.13261887 -0.17045058 0.08859661 -0.19956344
0.22448425 -0.089988045 0.018716257 0.11105477 0.09740579 0.052985907 0.1842379 0.086808614
-0.21460006 0.11948536 -0.07753548 -0.14777504 -0.045739673 -0.07919231 -0.042442553 -0.21325423
-0.009461187 -0.19895038 -0.24329302 0.10646672 0.088226564 -0.013766905 0.14172325 -0.0005545816
0.030850353 -0.09307703 -0.23350793 0.17296578 -0.082130425 -0.02236591 0.07146519 0.12519832
-0.17747156 0.062346756 0.030514013 -0.2407004 -0.12117862 0.024065366 0.0071893814 -0.0921669
0.15998009 0.0022559164 -0.16079724 -0.1993047 0.24549857 0.09282373 0.13039161 -0.02392482
0.18369967 0.1283307 0.21282731 -0.21991012 -0.0036084396 -0.0962549 -0.05478819 0.009688312
0.08374257 0.031197023 -0.09006589 -0.0072196834 0.041040957 0.040261436 0.02159089 0.0024543637
0.0063191536 0.026263144 0.11995778 0.1538024 -0.17743771 0.1289399 -0.07900265 0.21267994
0.21458524 -0.17049344 0.015954804 0.020435207 -0.07811862 -0.089189745 0.09574805 -0.20988199
0.12691885 0.040580664 -0.03625839 0.12978788 0.1040737 0.20414354 0.12206299 0.153652
-0.17240992 -0.20441337 -0.08941594 0.15519649 -0.07272685 0.18156078 -0.20178917 0.09031628
0.13666527 -0.18547823 -0.0636129 -0.21541558 0.18288076 0.11961427 -0.21992157 0.10781841
-0.10893522 0.04724092 0.048378553 0.12937555 -0.104001306 0.16825165 0.107527725 -0.1042189

convolution_block5.0.bias f4 [32]
00000000: 580b 303e 7d92 493d 544c 5e3e 9dc6 d73a
00000010: ebd5 df3c c871 53be 56cb 4d3e f0cb 41be
00000020: 5789 12be 408d 1b3e f28e a03d 027f 5ebe
00000030: 568e 82bd f355 1abd 2dfe 35be e5b9 433e
00000040: 6445 30be 27fe 05bd 538b 483c eb19 3b3d
00000050: ee7c 42be 27c6 3abe 1b41 3a3e ab39 173d
00000060: 50aa 3abe db40 eabd 42f0 85bd d53d 463e
00000070: a1b9 75bb 28a2 7bbe 3b25 0b3e 7eac f93b
0.17191827 0.049211968 0.21708804 0.001646239 0.027323684 -0.20648873 0.20097098 -0.18925452
-0.14310203 0.15190601 0.07839765 -0.21728137 -0.06374805 -0.037679624 -0.17772742 0.19113882
-0.1721397 -0.03271308 0.012240249 0.045679014 -0.1899297 -0.18239652 0.18188898 0.03692023
-0.18229032 -0.114381514 -0.06539966 0.19359525 -0.0037494677 -0.24573576 0.13588421 0.0076194396

convolution_block5.2.weight f4 [32]
00000000: a9db 833f 160a 813f 7bb9 7f3f 8773 803f
00000010: a63f 833f cc27 823f edbb 7a3f a11a 7b3f
00000020: ae4c 803f d05d 823f b0da 813f 707d 7b3f
00000030: a41f 7d3f 2d0a 823f 3b65 7e3f b313 7c3f
00000040: 0353 7f3f e47b 803f 62fa 7b3f cf87 7a3f
00000050: f196 803f fbb7 7e3f 9128 7e3f 1fe0 813f
00000060: 3cbf 823f dcab 813f 1b28 7d3f f77e 783f
00000070: 0c6b 7c3f 0224 7f3f 7804 813f 2f6a 803f
1.030141 1.0081203 0.99892396 1.0035256 1.0253799 1.0168395 0.97943 0.9808751
1.0023401 1.0184879 1.0144863 0.9823828 0.98876405 1.0159355 0.99373215 0.9846756
0.9973604 1.0037808 0.9842893 0.9786348 1.0046064 0.9949948 0.9928065 1.0146521
1.021461 1.0130572 0.9888932 0.9706873 0.9860084 0.9966432 1.0079489 1.0032405

convolution_block5.2.bias f4 [32]
00000000: c631 d6bb f126 1cbb 791c 803a 0721 8ebb
00000010: b3f8 ac3c 1ef5 d03b 5cd5 f73b 9773 dcbb
00000020: 2006 01bc 94d7 253a ff47 933a 6c77 a538
00000030: e543 01bc 9a96 4eba 682a 923b 8740 e23b
00000040: 7338 533b d3ee 25bb d9d6 2e3b 8257 923b
00000050: 4ec0 f7bb b829 1aba f08c 9e3b 95da 363c
00000060: 8cc6 0b3c a32e 98bc 5a7a 153c 0e3c 07bb
00000070: 2b18 46bc 5366 883b 0f40 4bbc bac8 f8bb
-0.006536695 -0.0023826922 0.000977411 -0.0043374333 0.021114683 0.0063768765 0.007563276 -0.0067276466
-0.0078749955 0.0006326374 0.0011236666 7.890057e-05 -0.0078897225 -0.0007880718 0.0044606216 0.006904665
0.0032229691 -0.0025319352 0.0026678352 0.004465998 -0.0075607663 -0.00058808504 0.0048385784 0.011160512
0.008531224 -0.018576926 0.009123409 -0.002063516 -0.012090723 0.0041625886 -0.0124054095 -0.007592288

convolution_block5.2.running_mean f4 [32]
00000000: ed1e ba3e bf25 4a3e c340 e13e 7fd7 903e
00000010: 4c24 453e ce1a a53e 66c2 cd3e 039a cc3d
00000020: dc3a 203e fb89 833e d023 a93e 10b5 9d3d
00000030: 5eca 2d3e 76b1 8f3e d2e5 ed3d 4bd0 8f3e
00000040: 8945 aa3d 180f 9e3e 7b95 ae3e 7ee9 563e
00000050: 188c 2e3e f78a 1c3e 0b79 a73e ba69 ac3e
00000060: 2cb6 8c3e bf1d eb3d f94c 323e 5c1d a13e
00000070: b63f 5a3e 6f01 003e ae8c ad3e 74e4 863e
0.3635172 0.19740961 0.43994722 0.2828941 0.19252127 0.32247013 0.40187377 0.09990313
0.15647453 0.25691208 0.33035135 0.077005506 0.16971728 0.2806508 0.116161 0.28088602
0.08314044 0.3087089 0.3409842 0.20987508 0.17045629 0.15287386 0.32709536 0.33674413
0.27482736 0.11480283 0.17412175 0.31467712 0.21313366 0.12500547 0.33896393 0.2634617

convolution_block5.2.running_var f4 [32]
00000000: 0d3d ac3e 37df b53d 8bad 413e 3df9 093e
00000010: 14ef 1d3e 7e04 783e cec3 693e 2f82 623d
00000020: a0e9 c13d 9956 1e3e 1c16 943e a032 463d
00000030: 2b6e 803d 966d 0c3e a875 273d 4036 0d3e
00000040: c6fe 533d 4c36 953e 83fa 4a3e 630a db3d
00000050: d049 fe3d e8fe f63d e949 913e 8655 833e
00000060: 0af3 413e 1b37 4f3d 54ec c13d e422 223e
00000070: 62e8 1d3e 7a87 aa3d ceab 583e 0b31 d23d
0.33640328 0.088804655 0.18913858 0.13473983 0.15423232 0.24220464 0.228286 0.055299934
0.094683886 0.15462722 0.28923118 0.048388124 0.06271013 0.13713679 0.04088369 0.13790226
0.051756643 0.29142988 0.19822125 0.106953405 0.12416422 0.12060338 0.283767 0.25651187
0.18940368 0.050589662 0.09468904 0.15833622 0.15420678 0.08326621 0.21159288 0.102632605

convolution_block6.0.weight f4 [10, 32, 3, 3]
00000000: 3361 afbd e77d 88bd eea3 5ebd 3edb bcbb
00000010: a97b 4d3d 105a 263d f18e f0bc e1be a5bc
00000020: d1c9 f4bc 4e0e cfbc 28a7 b0bd 05d0 8dbc
00000030: b1df 023d ac33 3bbd 7b6d 00bd 5762 443d
00000040: dea0 b3bc 5a7d c93b bae1 2cbc c6ac 513d
00000050: 84de b03a b38c 8dbc 8be2 6ebc 8191 353c
00000060: e191 07bd 2547 a1bd ed04 65bd 0a1c ce3b
00000070: 233a a43d 32da 06bd 1fc5 623d d293 47bd
00000080: ed64 adbc a3fc 01bc a010 51bd a47e adbd
00000090: 65c9 073d 129d 333b b0f4 8dbd 0891 f7bb
000000a0: 6fa2 dc3c 5bed fb3c 8189 ad3c 668f 2b3d
000000b0: 12ca 1c3d 70d4 423d a2ee 9abd fd45 fbba
000000c0: 605a e4bc e1f2 6cbd 9940 a4bd 7fbd 8fbd
000000d0: e9ba 75bd f82b 56bd fa4a 883d 62fd 643d
000000e0: 9086 bdbc 6cec 463d 4d39 913d a458 543d
000000f0: 90df 963d 579f 5d3b 8649 423d bed1 f33c
00000100: 18f5 413d c2de c9bc d399 8b3c b7c1 7cbc
00000110: 2964 abbd 4553 90bc c0f4 32bd 4ed3 2abd
00000120: d50a da3c ce48 10bd b403 abbd 1efe b23b
00000130: e7c3 14bd 7e48 92bd 67b0 a5bc 69a0 dd3c
00000140: 640a c53c 6668 49bd 0155 1bbd b1de 883d
00000150: 4bcf 8a3d 2582 493d f392 a83c ad9a 61bd
00000160: ab20 33bc 5e95 93bc d29f c8bc fb9d 6cbd
00000170: d21d 2dbd 8f76 0d3c 99ec 43bd b018 cebd
00000180: a5b8 2dbd 6acd 9ebd fe40 0cbd 2d8d 073d
00000190: f5fb 0c3d 4446 94bd b21a 3dbd b77c d3bc
000001a0: aa2f 8fbd 36c9 f53b f5c3 b6bd a786 e6bc
000001b0: e575 443d ebbd 523c fd5d 803c 14a3 273d
000001c0: f73b c0bc 17d9 11bd c5d8 a8bd a323 b0bd
000001d0: 8a07 38bd dbf1 95bc 2ad5 16bd f722 b33b
000001e0: 9a5b 43bd cdd0 32bd 1a46 b63c d41b b7bd
000001f0: 1360 f9bc 3661 df3d 74e3 7cbd 0217 c5bb
00000200: 68b9 93bd fa59 b6bd 7e52 c8bb 8093 b3bd
00000210: ce6f 0abc 2cb7 e3bc 047f 5b3d 8e1c 9b3c
00000220: 4715 6cbc 922c 333d 16e2 46bd ad92 90bb
00000230: f104 9cbd a7e0 b73c be4f 4bbd 0535 87bd
00000240: f6bb 883d afea 00bd 7b42 8e3c 092e 263d
00000250: cfdb c2bc 67f3 bcbd c8f8 1439 e338 2cbd
00000260: 3d55 07bd 5924 0c3d 8cac 803d 9007 b43d
00000270: 63b0 053a 3a45 a53c 400d b3bc a41b 673d
00000280: 610a 22bc dde5 c0bc f4bb debb 50af 8abd
00000290: 2e9f 68bd 4884 9c3c 4bcb a23c 1c20 9ebd
000002a0: 6455 52bd 31dd a2bc e775 d03a 4b72 12bd
000002b0: 00f5 fdbc 92c5 afbb e8c8 ddbc 9311 923d
000002c0: ce19 e7bb 0e5e 663d e0fb 173d d594 a13d
000002d0: b46c 6bbc acd9 b9bd b13c fdbd e59e 8d3c
000002e0: c7ee 41bd efe5 1bbd c430 283d b16f 52bd
000002f0: 712c 20bd ae9a c83c f87c 9ebd 3328 b43c
00000300: 3bb9 553d 664f 5dbd afd9 533c 7634 083a
00000310: 3b89 82bd c798 90bc 88c3 0c3d a0c6 ff3a
00000320: 6b28 a1bd ec20 203c 8083 11bd 5b40 d2bd
00000330: ef4e 003d 6d66 95bd 860b e2bc a5dd 6a3d
00000340: 69b3 43bc b431 9b3b 975a 563c 5fae e33c
00000350: 1d3f ebbc 98c9 cb3a eaeb a93c c1be a9bc
00000360: 1d7f abbc f124 13bd a802 5bbd 41d6 02bd
00000370: de65 c9bd c945 3bbb 85dd 273c 5188 71bd
00000380: de0e cfbd 99a6 bc3c 1068 29bd 38cd adbd
00000390: eb4d 833d 38ed 2f3d 510e f6bb eb2c 833b
000003a0: 2e21 70bd b93c f2bc e249 013c 732b 193c
000003b0: 0104 ebbc 1a40 4e3d 1312 e3bd 25f3 87bd
000003c0: 51f6 31bd 1416 74bc 837b dd3c 4152 033d
000003d0: 69fd 493d ac2c 003d 1604 3c3d 44c7 e43c
000003e0: 9621 933c 2685 28bd 9005 02bd d267 9fbc
000003f0: 805b 483d fc6c 053d c0d4 533c 84e0 d23d
-0.08563461 -0.06664639 -0.054355554 -0.0057634404 0.05016676 0.040613234 -0.029365035 -0.02023262
-0.02988139 -0.025275376 -0.086256325 -0.017311106 0.03195161 -0.045703575 -0.03135441 0.047945347
-0.021927293 0.0061489763 -0.010551864 0.05119016 0.0013494049 -0.017279005 -0.014580379 0.011082054
-0.033098105 -0.07874898 -0.0559129 0.0062899636 0.08018901 -0.03292293 0.05536377 -0.048724957
-0.02116629 -0.007933768 -0.051041245 -0.084714204 0.03315105 0.0027406854 -0.06931436 -0.007555131
0.026932923 0.030752828 0.021183731 0.041884802 0.038278647 0.047565877 -0.07565047 -0.0019170638
-0.027875125 -0.057848815 -0.080201335 -0.070185654 -0.059992705 -0.052288026 0.06654926 0.055905707
-0.023135453 0.048565313 0.070910074 0.051842347 0.0736686 0.0033816898 0.0474334 0.029763099
0.04735288 -0.024642352 0.017041123 -0.015427045 -0.083687134 -0.017617831 -0.043690443 -0.041705422
0.026616493 -0.035225682 -0.08350316 0.005462422 -0.03631964 -0.07142733 -0.020225717 0.027054029
0.024052806 -0.049171828 -0.037922863 0.066831 0.06777819 0.04919638 0.020577883 -0.05507915
-0.010933082 -0.01801556 -0.02449027 -0.05776785 -0.042264767 0.008634224 -0.04783306 -0.100633025
-0.04241242 -0.077540234 -0.03424167 0.03309362 0.034419972 -0.072399646 -0.046168037 -0.025816305
-0.06991513 0.007500793 -0.089240946 -0.02814038 0.047963995 0.012862663 0.015669817 0.040927008
-0.023466093 -0.035607424 -0.082444705 -0.08600547 -0.044929065 -0.018303802 -0.036824383 0.0054668146
-0.04769478 -0.04365616 0.022250224 -0.08940855 -0.03044132 0.109072134 -0.061740354 -0.0060147056
-0.07213098 -0.089038804 -0.0061133495 -0.08768368 -0.008449508 -0.027797304 0.05358793 0.018934514
-0.01440937 0.043743677 -0.048555456 -0.0044120164 -0.0761813 0.02244599 -0.049636595 -0.066019095
0.06676476 -0.03147381 0.017365685 0.040571246 -0.023786454 -0.09226113 0.00014207058 -0.04204644
-0.033040274 0.03421435 0.06282911 0.08790505 0.0005099831 0.020174611 -0.021856904 0.056422845
-0.00989017 -0.023547107 -0.006797308 -0.067717195 -0.05679243 0.019106045 0.019872328 -0.07720968
-0.051350966 -0.019880863 0.0015904278 -0.03575353 -0.031000614 -0.0053641284 -0.027073339 0.07132258
-0.0070526367 0.05624204 0.03710544 0.078897156 -0.014369179 -0.09074721 -0.123650916 0.01728768
-0.047346856 -0.03806108 0.04106213 -0.05137605 -0.039104883 0.02448782 -0.0773868 0.021991825
0.052178603 -0.0540308 0.012930318 0.00051958056 -0.06373831 -0.017650975 0.03436616 0.0019514151
-0.07869037 0.009773474 -0.0355258 -0.10266181 0.031325277 -0.07294927 -0.027593385 0.057340283
-0.01194463 0.0047361497 0.013083122 0.027793108 -0.028716618 0.001554775 0.020742375 -0.020720841
-0.020934636 -0.035923902 -0.05346933 -0.03194261 -0.09833883 -0.002857553 0.010245685 -0.058967892
-0.101102576 0.023028659 -0.041359007 -0.08486408 0.06411346 0.04295084 -0.007509031 0.0040031574
-0.058625393 -0.02956997 0.00789115 0.009348738 -0.028688433 0.0503541 -0.11087432 -0.06638173
-0.043447796 -0.014897842 0.027036434 0.032060865 0.049313936 0.031292602 0.045902334 0.027927049
0.017960351 -0.041142605 -0.031743586 -0.019458685 0.048915386 0.03257464 0.0129291415 0.10296729

convolution_block6.0.bias f4 [10]
00000000: d4f4 fc3c 32f7 e6bc 5990 5dbd 1eed b63c
00000010: eb7a 54bc 835d a93c 6a0f 853d a5aa 00bc
00000020: 3227 da3a 6218 1f3d
0.030878462 -0.028194044 -0.05409274 0.022329863 -0.012968759 0.020674473 0.064970806 -0.007853185
0.0016643761 0.038841613

convolution_block6.2.weight f4 [10]
00000000: ba50 843f 48f1 733f fb4c 7d3f d4a6 703f
00000010: 3638 803f d189 813f 890a 733f 2f96 883f
00000020: 6508 843f 97e5 873f
1.0337136 0.9529004 0.9894559 0.9400456 1.0017154 1.0120183 0.9493795 1.0670832
1.0315062 1.061694

convolution_block6.2.bias f4 [10]
00000000: fe6f 4bbb 5099 093d 3b85 9fbb 5ee3 9fbb
00000010: 2bfb 3d3b 98a3 3f3d 05b3 743d 93f7 373c
00000020: 0f01 b13c 62c8 4cbc
-0.0031042094 0.033593476 -0.004868177 -0.004879399 0.002898882 0.046786875 0.05974104 0.01122846
0.02160695 -0.012498947

convolution_block6.2.running_mean f4 [10]
00000000: 9b14 663f d439 173f 5beb 1f3f 8a14 113f
00000010: fca1 783f 0f58 303f d47a 3c3f 6b1a 6f3f
00000020: 3067 5c3f 9ca6 493f
0.8987519 0.59072614 0.624685 0.56671965 0.9712217 0.68884367 0.7362492 0.93399686
0.8609495 0.7876985

convolution_block6.2.running_var f4 [10]
00000000: 2a04 ac3f cd74 a33f 9999 873f d8a9 543f
00000010: fae5 1340 ec3b c83f eebb 913f cca5 4e40
00000020: 112e 2040 c7d1 c93f
1.3438771 1.277002 1.0593749 0.8307166 2.3109117 1.5643287 1.1385477 3.2288694
2.5028117 1.5767144

convolution_block7.0.weight f4 [10, 10, 1, 1]
00000000: 331e c8bd 5d40 923e d688 0fbd c4fa 8c3e
00000010: 384d 813e 857f d9bd e7ab 723e e7f7 87be
00000020: ae1a 3abe caa7 763e 36b4 a33e eed1 02bd
00000030: 0b18 05be a807 58be 54ee 30bc 30a2 393e
00000040: bb19 8e3e 7077 a43e 36fb a53d 88d8 80bb
00000050: f7f9 123d 8d8e fc3d f862 903d ae87 75bb
00000060: eaad 9d3e 023c e13c 6f6d e33d c284 b5be
00000070: 039a 15be cc04 c3bd c5c5 f2bd baea ec3d
00000080: d5a5 9dbe b720 773e ef37 b1bd f065 603e
00000090: 7e76 643d 22c3 793e 2de6 8d3e be4e 8ebe
000000a0: 9439 d0bc b5b4 1fbe 70f3 d1bd 6db2 ffbd
000000b0: e81b 96be 1884 363e 1bdd c93b dfc3 1f3e
000000c0: 88b2 573e 6780 893e 91cc a5be 6f1b 0f3d
000000d0: 413f 1abc 6f42 e53d 1aa8 c3bd 5eab 563e
000000e0: 2136 7b3e ecf0 50bd 5509 afbe 8759 b8bd
000000f0: e3b7 98be 1f2c 403e e782 fcbd 39bd d5bd
00000100: cff0 803e acc1 a33e 4f1c 8a3e 93c1 d33b
00000110: a669 9a3d 83a6 a63d 8482 07be d3c6 9ebe
00000120: c00e 26be 3c58 f8bd 4590 16be b5e3 933e
00000130: 11d2 92be 2133 0fbc 91ea c33e 21e3 93bc
00000140: f493 09be 3d7b 96be bc72 60be ac06 f6bd
00000150: 893b 6d3e f6c5 003e 266a eabd 39d0 aebd
00000160: 519a 0dbe 846f 87be cf98 823e 0513 2e3e
00000170: 9b69 973d b0f1 943d 7256 123b 316a b5bd
00000180: a4c6 0e3d 89b7 acbe 6e48 413e 4e9b d3be
-0.09771385 0.2856473 -0.035042606 0.2753507 0.25254226 -0.106200255 0.23698388 -0.26556322
-0.1817424 0.24087444 0.31973428 -0.031938486 -0.12997453 -0.2109667 -0.010799009 0.18128276
0.27754006 0.32122374 0.08104555 -0.0039320625 0.035882916 0.12331877 0.07050127 -0.0037464905
0.30796748 0.027494434 0.11104857 -0.3545285 -0.14609532 -0.09522399 -0.11854128 0.11568208
-0.30790582 0.24133573 -0.086532466 0.21913886 0.055777065 0.24390844 0.27714673 -0.2779445
-0.02541808 -0.15596278 -0.1025151 -0.12485204 -0.29318166 0.17823827 0.006160391 0.15602063
0.21064198 0.26855776 -0.32382634 0.034938272 -0.009414495 0.11194312 -0.09553547 0.20963809
0.24532367 -0.05101101 -0.34186807 -0.09001451 -0.29827794 0.18766831 -0.12329655 -0.10436482
0.25183722 0.31983697 0.26974723 0.006462285 0.07539682 0.08137228 -0.13233382 -0.31011066
-0.16216564 -0.12126204 -0.14703472 0.28884664 -0.28675893 -0.008740217 0.38264897 -0.01805264
-0.13435346 -0.29390898 -0.21918768 -0.12012991 0.23167242 0.12575516 -0.114460275 -0.08535809
-0.13828398 -0.26452267 0.2550721 0.16999443 0.073931895 0.07272661 0.0022329357 -0.08858145
0.034857407 -0.33733776 0.18875286 -0.41329426

convolution_block7.0.bias f4 [10]
00000000: 1522 93be cf38 273e fa7f 843e 12b5 1dbe
00000010: 5cf1 c4bd 5a5f 2fbe 656c dbbd 2c34 85bd
00000020: 7f98 453e 4c90 09be
-0.2873694 0.16330265 0.25878888 -0.15401104 -0.09616348 -0.17126217 -0.10714034 -0.065040916
0.19296454 -0.13433951

convolution_block7.2.weight f4 [10]
00000000: 6530 813f bb9b 823f 4666 7a3f 1b01 833f
00000010: 7d13 803f ce46 803f 1ea3 7a3f c916 7b3f
00000020: 1f73 813f 50c1 803f
1.0092894 1.0203775 0.97812307 1.0234712 1.0005947 1.0021608 0.9790515 0.9808164
1.0113257 1.0058994
